…
[2024-04-02 03:27:43,459 INFO] Get special vocabs from Transforms: {'src': [], 'tgt': []}.
[2024-04-02 03:27:43,474 INFO] The first 10 tokens of the vocabs are:['<unk>', '<blank>', '<s>', '</s>', 'li', 'e', 'mi', 'jan', 'ni', 'tawa']
[2024-04-02 03:27:43,474 INFO] The decoder start token is: <s>
[2024-04-02 03:27:43,475 INFO] Building model...
[2024-04-02 03:27:51,423 INFO] Switching model to float32 for amp/apex_amp
[2024-04-02 03:27:51,423 INFO] Non quantized layer compute is fp16
[2024-04-02 03:27:51,730 INFO] NMTModel(
  (encoder): TransformerEncoder(
    (embeddings): Embeddings(
      (make_embedding): Sequential(
        (emb_luts): Elementwise(
          (0): Embedding(912, 128, padding_idx=1)
        )
        (pe): PositionalEncoding()
      )
      (dropout): Dropout(p=0.1, inplace=False)
    )
    (transformer): ModuleList(
      (0-1): 2 x TransformerEncoderLayer(
        (self_attn): MultiHeadedAttention(
          (linear_keys): Linear(in_features=512, out_features=512, bias=False)
          (linear_values): Linear(in_features=512, out_features=512, bias=False)
          (linear_query): Linear(in_features=512, out_features=512, bias=False)
          (softmax): Softmax(dim=-1)
          (dropout): Dropout(p=0.1, inplace=False)
          (final_linear): Linear(in_features=512, out_features=512, bias=False)
        )
        (feed_forward): PositionwiseFeedForward(
          (w_1): Linear(in_features=512, out_features=512, bias=False)
          (w_2): Linear(in_features=512, out_features=512, bias=False)
          (layer_norm): LayerNorm((512,), eps=1e-06, elementwise_affine=True)
          (dropout_1): Dropout(p=0.1, inplace=False)
          (dropout_2): Dropout(p=0.1, inplace=False)
        )
        (layer_norm): LayerNorm((512,), eps=1e-06, elementwise_affine=True)
        (dropout): Dropout(p=0.1, inplace=False)
      )
    )
    (layer_norm): LayerNorm((512,), eps=1e-06, elementwise_affine=True)
  )
  (decoder): TransformerDecoder(
    (embeddings): Embeddings(
      (make_embedding): Sequential(
        (emb_luts): Elementwise(
          (0): Embedding(6824, 128, padding_idx=1)
        )
        (pe): PositionalEncoding()
      )
      (dropout): Dropout(p=0.1, inplace=False)
    )
    (layer_norm): LayerNorm((512,), eps=1e-06, elementwise_affine=True)
    (transformer_layers): ModuleList(
      (0-1): 2 x TransformerDecoderLayer(
        (self_attn): MultiHeadedAttention(
          (linear_keys): Linear(in_features=512, out_features=512, bias=False)
          (linear_values): Linear(in_features=512, out_features=512, bias=False)
          (linear_query): Linear(in_features=512, out_features=512, bias=False)
          (softmax): Softmax(dim=-1)
          (dropout): Dropout(p=0.1, inplace=False)
          (final_linear): Linear(in_features=512, out_features=512, bias=False)
        )
        (feed_forward): PositionwiseFeedForward(
          (w_1): Linear(in_features=512, out_features=512, bias=False)
          (w_2): Linear(in_features=512, out_features=512, bias=False)
          (layer_norm): LayerNorm((512,), eps=1e-06, elementwise_affine=True)
          (dropout_1): Dropout(p=0.1, inplace=False)
          (dropout_2): Dropout(p=0.1, inplace=False)
        )
        (layer_norm_1): LayerNorm((512,), eps=1e-06, elementwise_affine=True)
        (dropout): Dropout(p=0.1, inplace=False)
        (context_attn): MultiHeadedAttention(
          (linear_keys): Linear(in_features=512, out_features=512, bias=False)
          (linear_values): Linear(in_features=512, out_features=512, bias=False)
          (linear_query): Linear(in_features=512, out_features=512, bias=False)
          (softmax): Softmax(dim=-1)
          (dropout): Dropout(p=0.1, inplace=False)
          (final_linear): Linear(in_features=512, out_features=512, bias=False)
        )
        (layer_norm_2): LayerNorm((512,), eps=1e-06, elementwise_affine=True)
      )
    )
  )
  (generator): Linear(in_features=512, out_features=6824, bias=True)
)
[2024-04-02 03:27:51,731 INFO] encoder: 3267584
[2024-04-02 03:27:51,732 INFO] decoder: 9624232
[2024-04-02 03:27:51,733 INFO] * number of parameters: 12891816
[2024-04-02 03:27:51,733 INFO] Trainable parameters = {'torch.float32': 12891816, 'torch.float16': 0, 'torch.uint8': 0, 'torch.int8': 0}
[2024-04-02 03:27:51,734 INFO] Non trainable parameters = {'torch.float32': 0, 'torch.float16': 0, 'torch.uint8': 0, 'torch.int8': 0}
…
[2024-04-02 03:34:41,826 INFO] Get special vocabs from Transforms: {'src': [], 'tgt': []}.
[2024-04-02 03:34:41,838 INFO] The first 10 tokens of the vocabs are:['<unk>', '<blank>', '<s>', '</s>', 'li', 'e', 'mi', 'jan', 'ni', 'tawa']
[2024-04-02 03:34:41,838 INFO] The decoder start token is: <s>
[2024-04-02 03:34:41,839 INFO] Building model...
[2024-04-02 03:34:42,751 INFO] Switching model to float32 for amp/apex_amp
[2024-04-02 03:34:42,752 INFO] Non quantized layer compute is fp16
[2024-04-02 03:34:42,905 INFO] NMTModel(
  (encoder): TransformerEncoder(
    (embeddings): Embeddings(
      (make_embedding): Sequential(
        (emb_luts): Elementwise(
          (0): Embedding(912, 128, padding_idx=1)
        )
        (pe): PositionalEncoding()
      )
      (dropout): Dropout(p=0.1, inplace=False)
    )
    (transformer): ModuleList(
      (0-1): 2 x TransformerEncoderLayer(
        (self_attn): MultiHeadedAttention(
          (linear_keys): Linear(in_features=500, out_features=500, bias=False)
          (linear_values): Linear(in_features=500, out_features=500, bias=False)
          (linear_query): Linear(in_features=500, out_features=500, bias=False)
          (softmax): Softmax(dim=-1)
          (dropout): Dropout(p=0.1, inplace=False)
          (final_linear): Linear(in_features=500, out_features=500, bias=False)
        )
        (feed_forward): PositionwiseFeedForward(
          (w_1): Linear(in_features=500, out_features=512, bias=False)
          (w_2): Linear(in_features=512, out_features=500, bias=False)
          (layer_norm): LayerNorm((500,), eps=1e-06, elementwise_affine=True)
          (dropout_1): Dropout(p=0.1, inplace=False)
          (dropout_2): Dropout(p=0.1, inplace=False)
        )
        (layer_norm): LayerNorm((500,), eps=1e-06, elementwise_affine=True)
        (dropout): Dropout(p=0.1, inplace=False)
      )
    )
    (layer_norm): LayerNorm((500,), eps=1e-06, elementwise_affine=True)
  )
  (decoder): TransformerDecoder(
    (embeddings): Embeddings(
      (make_embedding): Sequential(
        (emb_luts): Elementwise(
          (0): Embedding(6824, 128, padding_idx=1)
        )
        (pe): PositionalEncoding()
      )
      (dropout): Dropout(p=0.1, inplace=False)
    )
    (layer_norm): LayerNorm((500,), eps=1e-06, elementwise_affine=True)
    (transformer_layers): ModuleList(
      (0-1): 2 x TransformerDecoderLayer(
        (self_attn): MultiHeadedAttention(
          (linear_keys): Linear(in_features=500, out_features=500, bias=False)
          (linear_values): Linear(in_features=500, out_features=500, bias=False)
          (linear_query): Linear(in_features=500, out_features=500, bias=False)
          (softmax): Softmax(dim=-1)
          (dropout): Dropout(p=0.1, inplace=False)
          (final_linear): Linear(in_features=500, out_features=500, bias=False)
        )
        (feed_forward): PositionwiseFeedForward(
          (w_1): Linear(in_features=500, out_features=512, bias=False)
          (w_2): Linear(in_features=512, out_features=500, bias=False)
          (layer_norm): LayerNorm((500,), eps=1e-06, elementwise_affine=True)
          (dropout_1): Dropout(p=0.1, inplace=False)
          (dropout_2): Dropout(p=0.1, inplace=False)
        )
        (layer_norm_1): LayerNorm((500,), eps=1e-06, elementwise_affine=True)
        (dropout): Dropout(p=0.1, inplace=False)
        (context_attn): MultiHeadedAttention(
          (linear_keys): Linear(in_features=500, out_features=500, bias=False)
          (linear_values): Linear(in_features=500, out_features=500, bias=False)
          (linear_query): Linear(in_features=500, out_features=500, bias=False)
          (softmax): Softmax(dim=-1)
          (dropout): Dropout(p=0.1, inplace=False)
          (final_linear): Linear(in_features=500, out_features=500, bias=False)
        )
        (layer_norm_2): LayerNorm((500,), eps=1e-06, elementwise_affine=True)
      )
    )
  )
  (generator): Linear(in_features=500, out_features=6824, bias=True)
)
[2024-04-02 03:34:42,907 INFO] encoder: 3145736
[2024-04-02 03:34:42,907 INFO] decoder: 9323296
[2024-04-02 03:34:42,908 INFO] * number of parameters: 12469032
[2024-04-02 03:34:42,909 INFO] Trainable parameters = {'torch.float32': 12469032, 'torch.float16': 0, 'torch.uint8': 0, 'torch.int8': 0}
[2024-04-02 03:34:42,910 INFO] Non trainable parameters = {'torch.float32': 0, 'torch.float16': 0, 'torch.uint8': 0, 'torch.int8': 0}
…
[2024-04-02 03:39:09,805 INFO] Get special vocabs from Transforms: {'src': [], 'tgt': []}.
[2024-04-02 03:39:09,817 INFO] The first 10 tokens of the vocabs are:['<unk>', '<blank>', '<s>', '</s>', 'li', 'e', 'mi', 'jan', 'ni', 'tawa']
[2024-04-02 03:39:09,817 INFO] The decoder start token is: <s>
[2024-04-02 03:39:09,818 INFO] Building model...
[2024-04-02 03:39:10,567 INFO] Switching model to float32 for amp/apex_amp
[2024-04-02 03:39:10,567 INFO] Non quantized layer compute is fp16
[2024-04-02 03:39:10,703 INFO] NMTModel(
  (encoder): TransformerEncoder(
    (embeddings): Embeddings(
      (make_embedding): Sequential(
        (emb_luts): Elementwise(
          (0): Embedding(912, 128, padding_idx=1)
        )
        (pe): PositionalEncoding()
      )
      (dropout): Dropout(p=0.1, inplace=False)
    )
    (transformer): ModuleList(
      (0-1): 2 x TransformerEncoderLayer(
        (self_attn): MultiHeadedAttention(
          (linear_keys): Linear(in_features=128, out_features=128, bias=False)
          (linear_values): Linear(in_features=128, out_features=128, bias=False)
          (linear_query): Linear(in_features=128, out_features=128, bias=False)
          (softmax): Softmax(dim=-1)
          (dropout): Dropout(p=0.1, inplace=False)
          (final_linear): Linear(in_features=128, out_features=128, bias=False)
        )
        (feed_forward): PositionwiseFeedForward(
          (w_1): Linear(in_features=128, out_features=512, bias=False)
          (w_2): Linear(in_features=512, out_features=128, bias=False)
          (layer_norm): LayerNorm((128,), eps=1e-06, elementwise_affine=True)
          (dropout_1): Dropout(p=0.1, inplace=False)
          (dropout_2): Dropout(p=0.1, inplace=False)
        )
        (layer_norm): LayerNorm((128,), eps=1e-06, elementwise_affine=True)
        (dropout): Dropout(p=0.1, inplace=False)
      )
    )
    (layer_norm): LayerNorm((128,), eps=1e-06, elementwise_affine=True)
  )
  (decoder): TransformerDecoder(
    (embeddings): Embeddings(
      (make_embedding): Sequential(
        (emb_luts): Elementwise(
          (0): Embedding(6824, 128, padding_idx=1)
        )
        (pe): PositionalEncoding()
      )
      (dropout): Dropout(p=0.1, inplace=False)
    )
    (layer_norm): LayerNorm((128,), eps=1e-06, elementwise_affine=True)
    (transformer_layers): ModuleList(
      (0-1): 2 x TransformerDecoderLayer(
        (self_attn): MultiHeadedAttention(
          (linear_keys): Linear(in_features=128, out_features=128, bias=False)
          (linear_values): Linear(in_features=128, out_features=128, bias=False)
          (linear_query): Linear(in_features=128, out_features=128, bias=False)
          (softmax): Softmax(dim=-1)
          (dropout): Dropout(p=0.1, inplace=False)
          (final_linear): Linear(in_features=128, out_features=128, bias=False)
        )
        (feed_forward): PositionwiseFeedForward(
          (w_1): Linear(in_features=128, out_features=512, bias=False)
          (w_2): Linear(in_features=512, out_features=128, bias=False)
          (layer_norm): LayerNorm((128,), eps=1e-06, elementwise_affine=True)
          (dropout_1): Dropout(p=0.1, inplace=False)
          (dropout_2): Dropout(p=0.1, inplace=False)
        )
        (layer_norm_1): LayerNorm((128,), eps=1e-06, elementwise_affine=True)
        (dropout): Dropout(p=0.1, inplace=False)
        (context_attn): MultiHeadedAttention(
          (linear_keys): Linear(in_features=128, out_features=128, bias=False)
          (linear_values): Linear(in_features=128, out_features=128, bias=False)
          (linear_query): Linear(in_features=128, out_features=128, bias=False)
          (softmax): Softmax(dim=-1)
          (dropout): Dropout(p=0.1, inplace=False)
          (final_linear): Linear(in_features=128, out_features=128, bias=False)
        )
        (layer_norm_2): LayerNorm((128,), eps=1e-06, elementwise_affine=True)
      )
    )
  )
  (generator): Linear(in_features=128, out_features=6824, bias=True)
)
[2024-04-02 03:39:10,704 INFO] encoder: 511232
[2024-04-02 03:39:10,705 INFO] decoder: 2279848
[2024-04-02 03:39:10,706 INFO] * number of parameters: 2791080
[2024-04-02 03:39:10,706 INFO] Trainable parameters = {'torch.float32': 2791080, 'torch.float16': 0, 'torch.uint8': 0, 'torch.int8': 0}
[2024-04-02 03:39:10,707 INFO] Non trainable parameters = {'torch.float32': 0, 'torch.float16': 0, 'torch.uint8': 0, 'torch.int8': 0}
…
